…
     "data": {
      "application/vnd.jupyter.widget-view+json": {
       "model_id": "a1cf93778ab0432a9ca4883a48384b27",
       "version_major": 2,
       "version_minor": 0
      },
      "text/plain": [
       "special_tokens_map.json:   0%|          | 0.00/85.0 [00:00<?, ?B/s]"
      ]
     },
     "metadata": {},
     "output_type": "display_data"
    },
    {
     "data": {
      "text/plain": [
       "Wav2Vec2Model(\n",
       "  (feature_extractor): Wav2Vec2FeatureEncoder(\n",
       "    (conv_layers): ModuleList(\n",
       "      (0): Wav2Vec2GroupNormConvLayer(\n",
       "        (conv): Conv1d(1, 512, kernel_size=(10,), stride=(5,), bias=False)\n",
       "        (activation): GELUActivation()\n",
       "        (layer_norm): GroupNorm(512, 512, eps=1e-05, affine=True)\n",
       "      )\n",
       "      (1-4): 4 x Wav2Vec2NoLayerNormConvLayer(\n",
       "        (conv): Conv1d(512, 512, kernel_size=(3,), stride=(2,), bias=False)\n",
       "        (activation): GELUActivation()\n",
       "      )\n",
       "      (5-6): 2 x Wav2Vec2NoLayerNormConvLayer(\n",
       "        (conv): Conv1d(512, 512, kernel_size=(2,), stride=(2,), bias=False)\n",
       "        (activation): GELUActivation()\n",
       "      )\n",
       "    )\n",
       "  )\n",
       "  (feature_projection): Wav2Vec2FeatureProjection(\n",
       "    (layer_norm): LayerNorm((512,), eps=1e-05, elementwise_affine=True)\n",
       "    (projection): Linear(in_features=512, out_features=768, bias=True)\n",
       "    (dropout): Dropout(p=0.1, inplace=False)\n",
       "  )\n",
       "  (encoder): Wav2Vec2Encoder(\n",
       "    (pos_conv_embed): Wav2Vec2PositionalConvEmbedding(\n",
       "      (conv): ParametrizedConv1d(\n",
       "        768, 768, kernel_size=(128,), stride=(1,), padding=(64,), groups=16\n",
       "        (parametrizations): ModuleDict(\n",
       "          (weight): ParametrizationList(\n",
       "            (0): _WeightNorm()\n",
       "          )\n",
       "        )\n",
       "      )\n",
       "      (padding): Wav2Vec2SamePadLayer()\n",
       "      (activation): GELUActivation()\n",
       "    )\n",
       "    (layer_norm): LayerNorm((768,), eps=1e-05, elementwise_affine=True)\n",
       "    (dropout): Dropout(p=0.1, inplace=False)\n",
       "    (layers): ModuleList(\n",
       "      (0-11): 12 x Wav2Vec2EncoderLayer(\n",
       "        (attention): Wav2Vec2SdpaAttention(\n",
       "          (k_proj): Linear(in_features=768, out_features=768, bias=True)\n",
       "          (v_proj): Linear(in_features=768, out_features=768, bias=True)\n",
       "          (q_proj): Linear(in_features=768, out_features=768, bias=True)\n",
       "          (out_proj): Linear(in_features=768, out_features=768, bias=True)\n",
       "        )\n",
       "        (dropout): Dropout(p=0.1, inplace=False)\n",
       "        (layer_norm): LayerNorm((768,), eps=1e-05, elementwise_affine=True)\n",
       "        (feed_forward): Wav2Vec2FeedForward(\n",
       "          (intermediate_dropout): Dropout(p=0.1, inplace=False)\n",
       "          (intermediate_dense): Linear(in_features=768, out_features=3072, bias=True)\n",
       "          (intermediate_act_fn): GELUActivation()\n",
       "          (output_dense): Linear(in_features=3072, out_features=768, bias=True)\n",
       "          (output_dropout): Dropout(p=0.1, inplace=False)\n",
       "        )\n",
       "        (final_layer_norm): LayerNorm((768,), eps=1e-05, elementwise_affine=True)\n",
       "      )\n",
       "    )\n",
       "  )\n",
       ")"
      ]
     },
     "execution_count": 3,
     "metadata": {},
     "output_type": "execute_result"
    }
   ],
   "source": [
    "# Load model and move to GPU\n",
    "wav2vec_model  = Wav2Vec2Model.from_pretrained(\"facebook/wav2vec2-base-960h\").to(device)\n",
    "processor = Wav2Vec2Processor.from_pretrained(\"facebook/wav2vec2-base-960h\")\n",
…
